…
:{"status":"ok","timestamp":1642261162361,"user_tz":-60,"elapsed":273,"user":{"displayName":"Mykola Haltiuk","photoUrl":"https://lh3.googleusercontent.com/a-/AOh14Gj-HTQlMcjXv5Ignw-w0XJXyYUpITi6vgcq2zhzOg=s64","userId":"08555164971466863527"}},"outputId":"4fcf04a2-50e3-41bb-c3fa-0ba8197d15ae"},"execution_count":null,"outputs":[{"output_type":"execute_result","data":{"text/plain":["TextClassifier(\n","  (loss_function): CrossEntropyLoss()\n","  (document_embeddings): TransformerDocumentEmbeddings(\n","    (model): DistilBertModel(\n","      (embeddings): Embeddings(\n","        (word_embeddings): Embedding(30522, 768, padding_idx=0)\n","        (position_embeddings): Embedding(512, 768)\n","        (LayerNorm): LayerNorm((768,), eps=1e-12, elementwise_affine=True)\n","        (dropout): Dropout(p=0.1, inplace=False)\n","      )\n","      (transformer): Transformer(\n","        (layer): ModuleList(\n","          (0): TransformerBlock(\n","            (attention): MultiHeadSelfAttention(\n","              (dropout): Dropout(p=0.1, inplace=False)\n","              (q_lin): Linear(in_features=768, out_features=768, bias=True)\n","              (k_lin): Linear(in_features=768, out_features=768, bias=True)\n","              (v_lin): Linear(in_features=768, out_features=768, bias=True)\n","              (out_lin): Linear(in_features=768, out_features=768, bias=True)\n","            )\n","            (sa_layer_norm): LayerNorm((768,), eps=1e-12, elementwise_affine=True)\n","            (ffn): FFN(\n","              (dropout): Dropout(p=0.1, inplace=False)\n","              (lin1): Linear(in_features=768, out_features=3072, bias=True)\n","              (lin2): Linear(in_features=3072, out_features=768, bias=True)\n","            )\n","            (output_layer_norm): LayerNorm((768,), eps=1e-12, elementwise_affine=True)\n","          )\n","          (1): TransformerBlock(\n","            (attention): MultiHeadSelfAttention(\n","              (dropout): Dropout(p=0.1, inplace=False)\n","              (q_lin): Linear(in_features=768, out_features=768, bias=True)\n","              (k_lin): Linear(in_features=768, out_features=768, bias=True)\n","              (v_lin): Linear(in_features=768, out_features=768, bias=True)\n","              (out_lin): Linear(in_features=768, out_features=768, bias=True)\n","            )\n","            (sa_layer_norm): LayerNorm((768,), eps=1e-12, elementwise_affine=True)\n","            (ffn): FFN(\n","              (dropout): Dropout(p=0.1, inplace=False)\n","              (lin1): Linear(in_features=768, out_features=3072, bias=True)\n","              (lin2): Linear(in_features=3072, out_features=768, bias=True)\n","            )\n","            (output_layer_norm): LayerNorm((768,), eps=1e-12, elementwise_affine=True)\n","          )\n","          (2): TransformerBlock(\n","            (attention): MultiHeadSelfAttention(\n","              (dropout): Dropout(p=0.1, inplace=False)\n","              (q_lin): Linear(in_features=768, out_features=768, bias=True)\n","              (k_lin): Linear(in_features=768, out_features=768, bias=True)\n","              (v_lin): Linear(in_features=768, out_features=768, bias=True)\n","              (out_lin): Linear(in_features=768, out_features=768, bias=True)\n","            )\n","            (sa_layer_norm): LayerNorm((768,), eps=1e-12, elementwise_affine=True)\n","            (ffn): FFN(\n","              (dropout): Dropout(p=0.1, inplace=False)\n","              (lin1): Linear(in_features=768, out_features=3072, bias=True)\n","              (lin2): Linear(in_features=3072, out_features=768, bias=True)\n","            )\n","            (output_layer_norm): LayerNorm((768,), eps=1e-12, elementwise_affine=True)\n","          )\n","          (3): TransformerBlock(\n","            (attention): MultiHeadSelfAttention(\n","              (dropout): Dropout(p=0.1, inplace=False)\n","              (q_lin): Linear(in_features=768, out_features=768, bias=True)\n","              (k_lin): Linear(in_features=768, out_features=768, bias=True)\n","              (v_lin): Linear(in_features=768, out_features=768, bias=True)\n","              (out_lin): Linear(in_features=768, out_features=768, bias=True)\n","            )\n","            (sa_layer_norm): LayerNorm((768,), eps=1e-12, elementwise_affine=True)\n","            (ffn): FFN(\n","              (dropout): Dropout(p=0.1, inplace=False)\n","              (lin1): Linear(in_features=768, out_features=3072, bias=True)\n","              (lin2): Linear(in_features=3072, out_features=768, bias=True)\n","            )\n","            (output_layer_norm): LayerNorm((768,), eps=1e-12, elementwise_affine=True)\n","          )\n","          (4): TransformerBlock(\n","            (attention): MultiHeadSelfAttention(\n","              (dropout): Dropout(p=0.1, inplace=False)\n","              (q_lin): Linear(in_features=768, out_features=768, bias=True)\n","              (k_lin): Linear(in_features=768, out_features=768, bias=True)\n","              (v_lin): Linear(in_features=768, out_features=768, bias=True)\n","              (out_lin): Linear(in_features=768, out_features=768, bias=True)\n","            )\n","            (sa_layer_norm): LayerNorm((768,), eps=1e-12, elementwise_affine=True)\n","            (ffn): FFN(\n","              (dropout): Dropout(p=0.1, inplace=False)\n","              (lin1): Linear(in_features=768, out_features=3072, bias=True)\n","              (lin2): Linear(in_features=3072, out_features=768, bias=True)\n","            )\n","            (output_layer_norm): LayerNorm((768,), eps=1e-12, elementwise_affine=True)\n","          )\n","          (5): TransformerBlock(\n","            (attention): MultiHeadSelfAttention(\n","              (dropout): Dropout(p=0.1, inplace=False)\n","              (q_lin): Linear(in_features=768, out_features=768, bias=True)\n","              (k_lin): Linear(in_features=768, out_features=768, bias=True)\n","              (v_lin): Linear(in_features=768, out_features=768, bias=True)\n","              (out_lin): Linear(in_features=768, out_features=768, bias=True)\n","            )\n","            (sa_layer_norm): LayerNorm((768,), eps=1e-12, elementwise_affine=True)\n","            (ffn): FFN(\n","              (dropout): Dropout(p=0.1, inplace=False)\n","              (lin1): Linear(in_features=768, out_features=3072, bias=True)\n","              (lin2): Linear(in_features=3072, out_features=768, bias=True)\n","            )\n","            (output_layer_norm): LayerNorm((768,), eps=1e-12, elementwise_affine=True)\n","          )\n","        )\n","      )\n","    )\n","  )\n","  (decoder): Linear(in_features=768, out_features=6, bias=True)\n",")"]},"metadata":{},"execution_count":142}]},{"cell_type":"code","source":["sent.label_dictionary.idx2item"],"metadata":{"colab":{"base_uri":"https://localhost:8080/"},"id":"e6kz8SxSOl51","executionInfo":{"status":"ok","timestamp":1642261040119,"user_tz":-60,"elapsed":2,"user":{"displayName":"Mykola Haltiuk","photoUrl":"https://lh3.googleusercontent.c
…
              patience=3,\n","              monitor_test=True,\n","              embeddings_storage_mode='gpu')"],"execution_count":null,"outputs":[{"metadata":{"tags":null},"name":"stdout","output_type":"stream","text":["2022-01-15 15:39:32,138 ----------------------------------------------------------------------------------------------------\n","2022-01-15 15:39:32,144 Model: \"TextClassifier(\n","  (loss_function): CrossEntropyLoss()\n","  (document_embeddings): TransformerDocumentEmbeddings(\n","    (model): DistilBertModel(\n","      (embeddings): Embeddings(\n","        (word_embeddings): Embedding(30522, 768, padding_idx=0)\n","        (position_embeddings): Embedding(512, 768)\n","        (LayerNorm): LayerNorm((768,), eps=1e-12, elementwise_affine=True)\n","        (dropout): Dropout(p=0.1, inplace=False)\n","      )\n","      (transformer): Transformer(\n","        (layer): ModuleList(\n","          (0): TransformerBlock(\n","            (attention): MultiHeadSelfAttention(\n","              (dropout): Dropout(p=0.1, inplace=False)\n","              (q_lin): Linear(in_features=768, out_features=768, bias=True)\n","              (k_lin): Linear(in_features=768, out_features=768, bias=True)\n","              (v_lin): Linear(in_features=768, out_features=768, bias=True)\n","              (out_lin): Linear(in_features=768, out_features=768, bias=True)\n","            )\n","            (sa_layer_norm): LayerNorm((768,), eps=1e-12, elementwise_affine=True)\n","            (ffn): FFN(\n","              (dropout): Dropout(p=0.1, inplace=False)\n","              (lin1): Linear(in_features=768, out_features=3072, bias=True)\n","              (lin2): Linear(in_features=3072, out_features=768, bias=True)\n","            )\n","            (output_layer_norm): LayerNorm((768,), eps=1e-12, elementwise_affine=True)\n","          )\n","          (1): TransformerBlock(\n","            (attention): MultiHeadSelfAttention(\n","              (dropout): Dropout(p=0.1, inplace=False)\n","              (q_lin): Linear(in_features=768, out_features=768, bias=True)\n","              (k_lin): Linear(in_features=768, out_features=768, bias=True)\n","              (v_lin): Linear(in_features=768, out_features=768, bias=True)\n","              (out_lin): Linear(in_features=768, out_features=768, bias=True)\n","            )\n","            (sa_layer_norm): LayerNorm((768,), eps=1e-12, elementwise_affine=True)\n","            (ffn): FFN(\n","              (dropout): Dropout(p=0.1, inplace=False)\n","              (lin1): Linear(in_features=768, out_features=3072, bias=True)\n","              (lin2): Linear(in_features=3072, out_features=768, bias=True)\n","            )\n","            (output_layer_norm): LayerNorm((768,), eps=1e-12, elementwise_affine=True)\n","          )\n","          (2): TransformerBlock(\n","            (attention): MultiHeadSelfAttention(\n","              (dropout): Dropout(p=0.1, inplace=False)\n","              (q_lin): Linear(in_features=768, out_features=768, bias=True)\n","              (k_lin): Linear(in_features=768, out_features=768, bias=True)\n","              (v_lin): Linear(in_features=768, out_features=768, bias=True)\n","              (out_lin): Linear(in_features=768, out_features=768, bias=True)\n","            )\n","            (sa_layer_norm): LayerNorm((768,), eps=1e-12, elementwise_affine=True)\n","            (ffn): FFN(\n","              (dropout): Dropout(p=0.1, inplace=False)\n","              (lin1): Linear(in_features=768, out_features=3072, bias=True)\n","              (lin2): Linear(in_features=3072, out_features=768, bias=True)\n","            )\n","            (output_layer_norm): LayerNorm((768,), eps=1e-12, elementwise_affine=True)\n","          )\n","          (3): TransformerBlock(\n","            (attention): MultiHeadSelfAttention(\n","              (dropout): Dropout(p=0.1, inplace=False)\n","              (q_lin): Linear(in_features=768, out_features=768, bias=True)\n","              (k_lin): Linear(in_features=768, out_features=768, bias=True)\n","              (v_lin): Linear(in_features=768, out_features=768, bias=True)\n","              (out_lin): Linear(in_features=768, out_features=768, bias=True)\n","            )\n","            (sa_layer_norm): LayerNorm((768,), eps=1e-12, elementwise_affine=True)\n","            (ffn): FFN(\n","              (dropout): Dropout(p=0.1, inplace=False)\n","              (lin1): Linear(in_features=768, out_features=3072, bias=True)\n","              (lin2): Linear(in_features=3072, out_features=768, bias=True)\n","            )\n","            (output_layer_norm): LayerNorm((768,), eps=1e-12, elementwise_affine=True)\n","          )\n","          (4): TransformerBlock(\n","            (attention): MultiHeadSelfAttention(\n","              (dropout): Dropout(p=0.1, inplace=False)\n","              (q_lin): Linear(in_features=768, out_features=768, bias=True)\n","              (k_lin): Linear(in_features=768, out_features=768, bias=True)\n","              (v_lin): Linear(in_features=768, out_features=768, bias=True)\n","              (out_lin): Linear(in_features=768, out_features=768, bias=True)\n","            )\n","            (sa_layer_norm): LayerNorm((768,), eps=1e-12, elementwise_affine=True)\n","            (ffn): FFN(\n","              (dropout): Dropout(p=0.1, inplace=False)\n","              (lin1): Linear(in_features=768, out_features=3072, bias=True)\n","              (lin2): Linear(in_features=3072, out_features=768, bias=True)\n","            )\n","            (output_layer_norm): LayerNorm((768,), eps=1e-12, elementwise_affine=True)\n","          )\n","          (5): TransformerBlock(\n","            (attention): MultiHeadSelfAttention(\n","              (dropout): Dropout(p=0.1, inplace=False)\n","              (q_lin): Linear(in_features=768, out_features=768, bias=True)\n","              (k_lin): Linear(in_features=768, out_features=768, bias=True)\n","              (v_lin): Linear(in_features=768, out_features=768, bias=True)\n","              (out_lin): Linear(in_features=768, out_features=768, bias=True)\n","            )\n","            (sa_layer_norm): LayerNorm((768,), eps=1e-12, elementwise_affine=True)\n","            (ffn): FFN(\n","              (dropout): Dropout(p=0.1, inplace=False)\n","              (lin1): Linear(in_features=768, out_features=3072, bias=True)\n","              (lin2): Linear(in_features=3072, out_features=768, bias=True)\n","            )\n","            (output_layer_norm): LayerNorm((768,), eps=1e-12, elementwise_affine=True)\n","          )\n","        )\n","      )\n","    )\n","  )\n","  (decoder): Linear(in_features=768, out_features=6, bias=True)\n","  (weights): None\n","  (weight_tensor) None\n",")\"\n","2022-01-15 15:39:32,147 ----------------------------------------------------------------------------------------------------\n","2022-01-15 15:39:32,152 Corpus: \"Corpus: 193777 train + 21531 dev + 23923 test sentences\"\n","2022-01-15 15:39:32,154 ----------------------------------------------
…
